mnist_params_good.npz (npz, 468229 bytes, 9 tensors)

arr_0 f4 [34048]
000000 de 07 80 3f a2 9c 7f 3f c4 30 7f 3f 49 5b 81 3f
       1.0002401 0.9984838 0.99683785 1.0105983
000010 f7 b0 7e 3f bc 21 7f 3f b3 63 80 3f 00 00 80 3f
       0.99488777 0.9966085 1.0030426 1.0
000020 33 54 7c 3f c3 30 7f 3f bf 44 7d 3f 1e 26 7a 3f
       0.9856598 0.9968378 0.98933023 0.9771441
000030 34 79 80 3f b3 fb 80 3f 18 47 80 3f ff c6 7c 3f
       1.0036988 1.0076813 1.0021696 0.98741144
000040 94 28 84 3f b1 24 7e 3f 00 00 80 3f 48 22 83 3f
       1.0324883 0.99274737 1.0 1.0244837
000050 1e 78 7c 3f 8f d5 80 3f 50 de 7d 3f 6f 6d 83 3f
       0.98620784 1.0065173 0.99167347 1.0267771
000060 00 00 80 3f 00 00 80 3f 00 00 80 3f 6f 7b 7e 3f
       1.0 1.0 1.0 0.99407095
000070 e2 b8 7c 3f f6 01 80 3f 51 27 80 3f a3 9c 81 3f
       0.9871961 1.0000598 1.0011998 1.0125927
000080 cd ef 82 3f 16 b9 80 3f ee cf 80 3f 48 05 7f 3f
       1.0229431 1.0056484 1.0063455 0.99617434
000090 a3 70 80 3f a5 64 83 3f f9 78 7e 3f 00 00 80 3f
       1.0034374 1.0265089 0.9940334 1.0
0000a0 17 cb 7c 3f c2 30 7f 3f 74 89 81 3f 57 3e 82 3f
       0.9874739 0.99683774 1.0120072 1.0175275
0000b0 5e 30 7c 3f e9 66 81 3f a2 f3 7f 3f 2a b2 7b 3f
       0.985113 1.0109531 0.9998113 0.9831873
0000c0 21 f9 7c 3f 80 ae 7d 3f 00 00 80 3f 28 da 7e 3f
       0.9881764 0.9909439 1.0 0.9955163
0000d0 3e c5 7c 3f c7 30 7f 3f 8d 1a 7e 3f c1 50 83 3f
       0.9873847 0.99683803 0.99259263 1.0259019
0000e0 00 00 80 3f 00 00 80 3f 00 00 80 3f c0 81 81 3f
       1.0 1.0 1.0 1.0117722
0000f0 70 91 7e 3f 1b ef 7e 3f cf a7 80 3f 51 c9 7b 3f
       0.9944067 0.99583596 1.0051211 0.9835406
000100 4c 30 83 3f 67 9f 7d 3f c4 30 7f 3f 1b a8 7f 3f
       1.0249114 0.99071354 0.99683785 0.99865884
000110 9b 46 7f 3f 27 66 7e 3f 38 5c 80 3f 00 00 80 3f
       0.9971711 0.9937462 1.0028143 1.0
000120 7b 3b 81 3f c2 30 7f 3f 0a 5c 7f 3f 40 35 7b 3f
       1.0096277 0.99683774 0.99749815 0.9812813
000130 89 6e 80 3f 20 19 84 3f fb e1 7f 3f cb e6 7f 3f
       1.0033733 1.0320168 0.99954194 0.9996154
000140 a0 01 80 3f 64 a4 7f 3f 00 00 80 3f e6 fa 81 3f
       1.0000496 0.99860215 1.0 1.0154693
000150 2c ae 80 3f c3 30 7f 3f 9c 6b 7e 3f f9 d4 7d 3f
       1.0053153 0.9968378 0.9938295 0.99153095
000160 00 00 80 3f 00 00 80 3f 00 00 80 3f ae e7 7b 3f
       1.0 1.0 1.0 0.9840039
000170 5e 00 81 3f df 10 81 3f 3e 4e 7e 3f 4b 24 80 3f
       1.0078237 1.0083274 0.9933814 1.0011076
000180 7f ea 80 3f 88 b7 80 3f 0d 01 80 3f 7a 9b 7e 3f
       1.0071563 1.0056009 1.0000321 0.9945599
000190 bf ac 7d 3f fd 6f 7f 3f c7 f0 80 3f 00 00 80 3f
       0.99091715 0.99780256 1.007348 1.0
0001a0 43 65 7e 3f c4 30 7f 3f 48 82 81 3f 4f 62 82 3f
       0.99373263 0.99683785 1.0117884 1.0186251
0001b0 ec ac 7f 3f d1 b2 7c 3f cc 32 7f 3f e6 04 80 3f
       0.9987323 0.9871035 0.99686885 1.0001495
0001c0 56 f7 80 3f 0e f6 7f 3f 00 00 80 3f c4 11 7b 3f
       1.0075481 0.99984825 1.0 0.98073983
0001d0 1a 75 80 3f 5d bd 80 3f f1 2e 80 3f 38 91 82 3f
       1.0035737 1.0057789 1.0014325 1.0200567
0001e0 00 00 80 3f 00 00 80 3f 00 00 80 3f 38 e2 81 3f
       1.0 1.0 1.0 1.0147161
0001f0 68 95 81 3f de 61 7d 3f 04 dd 7b 3f 69 3b 7f 3f
       1.012372 0.9897746 0.9838412 0.9970003
000200 9b 54 83 3f 63 81 7d 3f c2 30 7f 3f 90 82 81 3f
       1.0260195 0.99025553 0.99683774 1.011797
000210 20 03 81 3f 6c 21 7f 3f 0e 76 7e 3f 00 00 80 3f
       1.0079079 0.9966037 0.9939889 1.0
000220 0a a8 81 3f cb 30 7f 3f 9e 9a 82 3f 36 2d 81 3f
       1.0129406 0.9968383 1.0203435 1.0091922
000230 05 31 7a 3f f9 56 7d 3f 6d 5b 7e 3f da 9f 7f 3f
       0.9773105 0.98960835 0.99358255 0.9985329
000240 3c aa 7c 3f 3c 63 81 3f 00 00 80 3f e3 ce 7c 3f
       0.9869726 1.0108409 1.0 0.98753184
000250 4a 52 82 3f ca 3f 81 3f 51 14 7e 3f 83 41 7b 3f
       1.0181363 1.0097592 0.9924975 0.9814684
000260 00 00 80 3f 00 00 80 3f 00 00 80 3f 1a c8 7b 3f
       1.0 1.0 1.0 0.98352206
000270 42 5f 81 3f 1f 96 7f 3f 56 6b 7a 3f 49 d6 80 3f
       1.0107195 0.9983844 0.9782003 1.0065395
000280 5e 86 7e 3f 27 5c 81 3f 8a 70 7f 3f be 3d 78 3f
       0.9942378 1.0106248 0.99781096 0.9696921
000290 a0 b8 7d 3f 77 b9 80 3f 66 87 81 3f dc 93 83 3f
       0.9910984 1.0056599 1.0119445 1.0279498
0002a0 1f 5f 84 3f 66 7e 80 3f 68 67 79 3f d5 20 80 3f
       1.0341529 1.0038574 0.9742341 1.001002
0002b0 bc b2 83 3f 70 88 81 3f f6 c6 7c 3f 37 f5 83 3f
       1.028892 1.0119762 0.9874109 1.0309209
0002c0 39 8d 7e 3f db ee 7c 3f 0e 72 85 3f a2 9a 7f 3f
       0.9943424 0.98801965 1.0425432 0.99845326
0002d0 05 66 83 3f 6a 28 81 3f 2d 2d 82 3f 11 55 7f 3f
       1.0265509 1.0090458 1.0170037 0.99739176
0002e0 d2 85 84 3f 30 4f 83 3f 00 00 80 3f f9 2c 82 3f
       1.0353339 1.0258541 1.0 1.0169975
0002f0 5c 77 7e 3f 38 76 80 3f 3a dd 7d 3f d9 e5 7d 3f
       0.9940088 1.0036077 0.9916569 0.99178845
000300 3f e3 7f 3f 52 71 7d 3f 3f ee 82 3f de 0a 81 3f
       0.99956125 0.9900104 1.0228957 1.0081441
000310 d3 8e 77 3f 72 45 80 3f 4d d4 81 3f 9d a5 85 3f
       0.9670231 1.0021193 1.0142914 1.0441166
000320 3b b4 7a 3f 71 08 81 3f 79 f9 80 3f 9d 3a 81 3f
       0.9793126 1.0080701 1.0076133 1.0096012
000330 f9 10 7d 3f c1 d9 7f 3f d1 ec 7e 3f 21 05 7f 3f
       0.98854023 0.9994164 0.99580103 0.996172
000340 75 98 7d 3f 4d 03 82 3f 8e 65 83 3f 00 c0 7e 3f
       0.99060756 1.0157257 1.0265367 0.9951172
000350 a9 e2 7c 3f 6a 0a 80 3f 0e f4 7d 3f 4d e8 7c 3f
       0.98783356 1.0003178 0.9920052 0.9879196
000360 30 44 84 3f 18 57 83 3f 00 00 80 3f fe d8 7f 3f
       1.0333309 1.0260954 1.0 0.9994048
000370 00 cf 82 3f 5e 55 81 3f 49 d5 7a 3f 26 7b 7b 3f
       1.0219421 1.0104177 0.979817 0.98234785
000380 ca c1 80 3f 9f a8 80 3f c5 96 82 3f 8f c5 7b 3f
       1.005914 1.0051459 1.0202261 0.98348325
000390 56 9e 73 3f 27 b2 83 3f 48 fb 82 3f bd f4 84 3f
       0.95163476 1.0288743 1.0232935 1.0387188
0003a0 df 71 80 3f 6d b8 80 3f 5d 4a 82 3f 42 7c 80 3f
       1.0034751 1.0056282 1.0178944 1.003792
0003b0 88 1a 81 3f 64 71 7e 3f 06 1f 80 3f 94 96 7f 3f
       1.0086222 0.9939177 1.0009468 0.9983914
0003c0 51 91 7f 3f 79 8a 80 3f 24 27 83 3f 6c b4 7b 3f
       0.9983111 1.0042259 1.024632 0.98322177
0003d0 0d 8e 81 3f ac 44 84 3f 89 8d 83 3f 5b 06 81 3f
       1.0121475 1.0333457 1.0277568 1.0080065
0003e0 3b b7 85 3f 2a 22 84 3f 00 00 80 3f bb 84 80 3f
       1.0446543 1.0322926 1.0 1.0040506
0003f0 99 6c 80 3f 7e 49 7f 3f 4b 83 82 3f 9d 21 80 3f
       1.0033141 0.99721515 1.0196317 1.0010258

arr_1 f4 [3, 3, 1, 32]
000000 2c e0 e5 bd 67 e7 61 3e e8 4b 1a 3e a6 27 f0 bc
       -0.11224398 0.22060929 0.15068018 -0.02931578
000010 55 b6 39 bd 76 1c 6d 3e e2 f1 99 3e 04 89 b5 3d
       -0.0453399 0.23155388 0.30067354 0.08864024
000020 e1 23 b6 3c d0 67 bd 3d f9 56 bd 3c 44 33 b8 3c
       0.022233905 0.09248316 0.02311276 0.022485383
000030 01 04 29 3e c5 bd ef bc 30 0d 01 3e a8 fb 09 be
       0.16505434 -0.029265294 0.12602687 -0.13474905
000040 ee 66 ad bc 16 24 be bd 6a 75 97 3e f2 77 37 3e
       -0.021167245 -0.092842266 0.29581767 0.1791685
000050 9b fe 48 3e 74 35 00 be 75 00 15 be 4a db 8f bd
       0.19628374 -0.12520391 -0.14550956 -0.07024248
000060 f7 0e 00 be f2 66 a1 3e f0 d4 04 bc 85 98 19 be
       -0.12505709 0.31523854 -0.008107409 -0.14999588
000070 ad aa 38 3a 21 04 2e 3e ff 6d 61 3d 8d 0d 32 bd
       0.00070444756 0.16993763 0.05503654 -0.043469954
000080 b4 bf 02 3d c4 72 cb 3d ef d7 06 3e cc 7f 49 bd
       0.031921104 0.09933999 0.1316831 -0.049194142
000090 24 38 44 bd d0 8a 7b 3e 6d 19 3b 3e 63 2d 17 3e
       -0.047905102 0.24564672 0.18271418 0.14763407
0000a0 92 4c df bd 17 cb ba bd 9c 58 bc bc 1b f1 17 be
       -0.109032765 -0.091207676 -0.022991471 -0.14838068
0000b0 11 8a 38 3d d5 32 e4 bc ec 4b 6f 3e e8 e8 25 bd
       0.045053545 -0.02785627 0.23368806 -0.04050532
0000c0 17 39 4d bb 85 dd 87 bc 95 c9 03 3e 0b 71 da bd
       -0.0031314546 -0.01658512 0.12869866 -0.106660925
0000d0 ff 59 c6 3d a8 7c ac bd ed 49 8a 3d 8b 6d 36 bd
       0.09685134 -0.08422214 0.067523815 -0.044538062
0000e0 3c 7d 16 be 06 8e 9e 3e 58 00 3f bd e0 5f 08 3e
       -0.1469621 0.3096773 -0.046631187 0.13317823
0000f0 e6 85 b5 bb b1 e1 84 3e 3e 3a c3 bd f9 27 09 be
       -0.0055396436 0.2595344 -0.09532593 -0.13394155
000100 17 a6 9a 3d fe 6c f7 3b d8 f1 48 bd ca 9e 9e bd
       0.075512104 0.0075508347 -0.049058765 -0.0774513
000110 4e da fb 3d b2 a9 97 bc 1a 2b 08 be 86 9f 4e 3c
       0.12297498 -0.018513534 -0.13297692 0.012611276
000120 28 57 cb 3d a9 ca 76 3d f1 f7 b3 3d 97 9d 2b 3d
       0.09928733 0.060251866 0.087875254 0.041898336
000130 44 c8 12 be 22 62 5d 3d 53 cc 32 3e 16 e2 71 bd
       -0.14334208 0.054048665 0.17460756 -0.059053503
000140 7f 81 e1 bd 20 a5 90 3d 55 80 3f bc 71 65 e8 3d
       -0.110110275 0.07062745 -0.011688312 0.113474734
000150 a8 3b 97 3d 06 56 aa bd cc 93 07 3e c2 cc df 3d
       0.073844254 -0.08317189 0.13239974 0.10927726
000160 cc df 02 be 78 9d 19 3e 87 62 80 bd b6 d6 1a be
       -0.12780684 0.15001476 -0.062687926 -0.15120968
000170 f5 49 c9 bd fe 37 a6 bd f7 27 fc bd 0b 22 c4 3d
       -0.09828559 -0.081161484 -0.1231231 0.09576806
000180 2f 2a 93 3d bc 72 d0 3d 06 00 15 be 52 18 ca bd
       0.0718578 0.10178134 -0.1455079 -0.0986792
000190 6f f4 c5 bc 36 2b 51 3d 43 51 3f 3e 82 8e 99 3e
       -0.024164407 0.0510666 0.18683343 0.29991537
0001a0 cf 29 29 be 57 93 19 be f0 7e ab bd 74 51 9d bd
       -0.16519855 -0.14997612 -0.08373821 -0.076815516
0001b0 f8 23 75 bd ba a7 0f bd f7 9f b6 bd 50 34 35 bd
       -0.059848756 -0.035072066 -0.089172296 -0.044239342
0001c0 6b 5c 7e 3d 33 96 8f 3c 24 c1 a8 bd 1a a2 12 3e
       0.062099855 0.017527675 -0.08239964 0.1431965
0001d0 00 e8 9a bd 01 a0 cc bc 41 82 a3 bd c0 42 6b bd
       -0.07563782 -0.02497864 -0.07983828 -0.057436705
0001e0 13 a1 cd bd 62 d2 7f bd 40 30 af bd a9 e8 45 3d
       -0.10040488 -0.062456496 -0.08554125 0.048317585
0001f0 6d 4b 3e bc 77 1e f9 bd 6d 4c 45 bd c9 46 50 bd
       -0.011614663 -0.12164014 -0.04816859 -0.050848756
000200 3b 2c 6f 3e 0c b0 82 bd 73 5c 76 3e 1d 60 97 3c
       0.23356716 -0.063812345 0.24058704 0.018478448
000210 e6 2c 97 3c d3 c3 86 3d 78 9f 79 3e e2 71 1c bd
       0.018454026 0.06580319 0.24377239 -0.038194545
000220 e5 c2 31 bd ae 32 39 3e 09 61 7d bd b0 db 39 bc
       -0.043398757 0.18085739 -0.061860118 -0.0113438815
000230 16 9f d9 3d b0 1a 1b be 21 86 f3 3d d7 c8 04 be
       0.10626046 -0.15146899 0.118908174 -0.1296724
000240 63 4d 63 3d 58 9e 09 be 1f 90 86 3d 57 2e 29 3e
       0.055493724 -0.1343931 0.06570458 0.16521583
000250 cf 58 cb 3d 23 4e 1d bd 4e 19 6a 3e e3 d2 05 be
       0.09929048 -0.038404595 0.22861215 -0.13068728
000260 10 06 b6 bd d2 82 2b 3e 00 9f 90 ba 99 90 65 3e
       -0.08887875 0.16749123 -0.0011033714 0.22418441
000270 63 f3 57 3d f3 a5 61 3e d6 15 e9 bc 9b a0 14 3d
       0.052722346 0.22035961 -0.028452795 0.036285978
000280 32 e0 73 3e 80 eb 42 3e 3c ba be bd 08 ef 75 bd
       0.23815992 0.19035149 -0.09312865 -0.06004241
000290 7a 6d 34 3c 31 d0 8d 3e f9 a2 11 3e 62 45 24 3e
       0.011012429 0.276979 0.14222325 0.16042092
0002a0 7c b6 96 bc 52 58 30 bd c5 d7 11 3d 29 95 2e 3c
       -0.018397562 -0.04305298 0.035606164 0.01065568
0002b0 fe 7e 70 3d bb 6b fc 3d 41 2f 47 3e e2 54 b3 bd
       0.05871486 0.123252355 0.1945162 -0.087564245
0002c0 b6 d4 14 be 3c 34 46 bd 24 d7 eb bd e5 75 2d 3e
       -0.14534268 -0.04838966 -0.11515644 0.16939504
0002d0 a3 c3 c0 bd ef 9e d4 3d 73 f0 19 3e df aa 46 bd
       -0.09412315 0.10381877 0.1503313 -0.0485028
0002e0 5d 63 3b 3e 22 77 01 3e 32 d6 08 be 85 de 14 be
       0.18299623 0.12643102 -0.13362959 -0.1453801
0002f0 5b 75 75 bd 4a b8 ab 3d 53 8a 67 bd 2b 16 4f bd
       -0.059926372 0.0838476 -0.0565284 -0.05055825
000300 1e 9a 02 be dc fd 36 3e 55 3a 49 bd cb 75 a5 3b
       -0.12754104 0.17870277 -0.049127895 0.0050494424
000310 77 e5 d6 bd c5 e2 42 bb 81 1c be 3c fb cd 64 3c
       -0.10492986 -0.0029737216 0.023206951 0.013965125
000320 b2 d6 07 3e 1e bf a1 3d b0 3f 48 bd 68 dc 7f 3d
       0.13265494 0.07897781 -0.048888862 0.062466055
000330 51 ef 32 bc 85 57 89 bd 80 d4 a0 bd a6 00 af bd
       -0.010921315 -0.06706146 -0.07853031 -0.085450456
000340 ca ea 77 bc df d4 07 be 95 02 8c bd f8 43 71 3d
       -0.015131662 -0.13264798 -0.0683643 0.05890271
000350 8f 8f a0 bd fb 73 14 3e e7 83 aa 3d a4 4f 85 bc
       -0.07839882 0.14497368 0.083259396 -0.016273327
000360 76 4c 0b be 75 93 d3 3c e8 9a b5 bc 36 02 60 3e
       -0.13603386 0.025827149 -0.022168592 0.21875843
000370 04 69 d8 bc d3 d9 fb bd 03 93 1e be 8a c9 9a 3c
       -0.026417263 -0.12297406 -0.15485768 0.01889493
000380 ca ab 28 3e d6 a3 6b 3e c2 89 18 be 18 f7 97 3d
       0.16471782 0.23011717 -0.148963 0.07420176
000390 d0 93 97 bd b7 2c b6 3b 78 98 32 3e c4 ef 09 3e
       -0.0740124 0.0055595296 0.17440975 0.1347037
0003a0 54 2c 9b bc 57 1b 0c 3e 3e be a0 bd 46 86 47 3e
       -0.018942036 0.13682304 -0.07848786 0.19484815
0003b0 61 cc 5c 3d 5c fd 31 bd ec 8e a9 3d 02 23 da bd
       0.05390585 -0.043454513 0.08279213 -0.106512085
0003c0 7e 6f ac ba 52 b2 ee bc bc 67 a6 3d b3 85 b7 bd
       -0.0013155786 -0.029137764 0.081252545 -0.08961048
0003d0 39 99 20 3e 2b 68 07 be f1 36 91 3d fc 43 ad bc
       0.1568345 -0.1322333 0.07090557 -0.021150582
0003e0 c1 10 cf bd 94 2b 04 3e 75 f1 d9 bd 26 7e 86 3e
       -0.101106174 0.12907249 -0.106417574 0.2626812
0003f0 9c 06 4b bd c3 42 b9 3d 2b 29 fd 3c 4c f0 f6 bd
       -0.04956685 0.09045937 0.03090342 -0.12057552

arr_2 f4 [32]
000000 58 a3 5d bc 2e 53 52 bc e0 da 88 bc a5 3b ac 3c
       -0.013527714 -0.012837214 -0.01670593 0.021024534
000010 3f ad 74 bc 4d 89 ba bb 5f 4d 8e bc 07 25 bd bc
       -0.014933883 -0.005692637 -0.017370878 -0.023088945
000020 a4 f4 34 3c 5b f2 90 bc ad 1a 9d 3c 68 8a 54 3c
       0.011044655 -0.01769369 0.019177759 0.012972452
000030 64 d0 e2 3b a5 ff a9 3c cc 0f ad bb 10 12 eb 3c
       0.0069218148 0.020751784 -0.005281424 0.028695136
000040 19 95 75 3b eb ad 80 3c b9 40 d9 bc 02 9e 56 3c
       0.0037472902 0.01570793 -0.02652012 0.013099195
000050 59 93 90 bb 5f bf ed bc 3e c9 1f bb 63 9f 2a 3d
       -0.0044120965 -0.029021917 -0.0024381424 0.04165591
000060 82 65 1d bd 19 89 e8 bc 00 00 00 00 80 ba 32 bb
       -0.038426884 -0.028385686 0.0 -0.0027271807
000070 db db 87 3c 06 20 02 bc e3 5d 36 3d 2b 2d e7 3c
       0.016584327 -0.007942205 0.04452313 0.02821978

arr_3 f4 [3, 3, 32, 64]
000000 a0 74 ce 3c bd db 60 3b 05 ba 72 bc 79 1f eb 3d
       0.025202096 0.0034310662 -0.014814858 0.11480612
000010 2a 3e 25 3d 74 c3 c2 bc 11 d5 6c 3c 84 5b 05 3c
       0.040342487 -0.02377484 0.014455096 0.008139495
000020 5d 86 26 3c 17 10 76 3d 0e e6 4b bd ef b6 73 3c
       0.010163871 0.06007394 -0.049779944 0.014875158
000030 a9 2e 0d 3d 6c e1 82 bb 16 3d d0 bc d7 6a 24 bd
       0.034468327 -0.0039941575 -0.025419753 -0.040140953
000040 b9 a4 85 3c 57 86 a3 3d 41 43 13 3d 11 22 6e 3c
       0.016313897 0.07984608 0.03595281 0.014534489
000050 27 10 d4 3b fa 3e 8a 3d 8c d7 76 bd 03 60 87 3d
       0.006471652 0.06750293 -0.060264155 0.0661011
000060 96 68 08 3d 53 90 00 bd 9d a8 45 3d 2c 32 95 bd
       0.033302866 -0.03138764 0.048256505 -0.0728496
000070 7c 80 c4 3d b3 21 e1 3c 83 99 d5 3d 38 e4 89 3d
       0.09594819 0.02748189 0.10429671 0.067329824
000080 49 9f 33 bd 4d 55 a5 3d 1a 44 8b 3d b4 52 02 3e
       -0.043853078 0.080729105 0.06800099 0.12726861
000090 57 19 b8 3d f7 1c c4 bd cd b9 c6 ba 73 6f 16 bd
       0.08989208 -0.09575837 -0.0015161574 -0.03672738
0000a0 d3 7f e9 bc 49 23 8b bd fc c8 d6 3c 60 94 b7 bc
       -0.028503334 -0.067938395 0.026218884 -0.022409618
0000b0 22 8f 4c bc 03 8d 26 3d 16 e9 3e bd d2 4a 0c 3e
       -0.012485297 0.040661823 -0.046609007 0.13700417
0000c0 df 1a 88 bd e5 fa bb bb b4 e9 db 3c d1 5b 5e 3d
       -0.0664575 -0.005736696 0.026844837 0.05428678
0000d0 28 41 a0 3c 25 c3 a8 3c ba 7d 96 bd 9d 11 2a 3d
       0.019562319 0.020600865 -0.07348199 0.041520704
0000e0 93 d6 83 bd 06 51 51 bd 55 78 2b 3d 83 32 39 3b
       -0.06437411 -0.05110266 0.041862804 0.0028258867
0000f0 56 4e 55 3d fd be 81 bb 5b ab 41 bc e2 cf 17 3d
       0.05207666 -0.003959535 -0.0118206395 0.037063487
000100 62 15 67 3d 0f 22 c8 3d 07 a9 d0 3d 2b 8a 88 3d
       0.056416877 0.09772121 0.101884894 0.066669784
000110 88 94 e8 bb 54 16 d5 3c 6b 94 7f 3c 4f 81 ae bc
       -0.0070977844 0.026011623 0.01559935 -0.021301894
000120 f8 89 60 bd c1 52 aa bd 41 a6 7c 3d 0f dd 07 3e
       -0.054819077 -0.08316565 0.06168199 0.13267921
000130 b3 fb 9a 3d d0 ce 6d bd 7d 23 a8 3d 00 a4 af 3d
       0.07567539 -0.05805856 0.08209894 0.085762024
000140 d8 55 a2 3d 22 9f 0f bd b2 39 c3 3d 13 82 bb bc
       0.0792653 -0.03506387 0.09532489 -0.022889173
000150 0e 44 d8 3c 2e 08 a6 bd b4 b0 51 bd 90 15 a3 3c
       0.026399639 -0.08107029 -0.051193908 0.019907743
000160 58 d1 41 b9 19 37 aa 3c b4 0c fc bc 18 38 92 3c
       -0.00018483901 0.020778226 -0.030767776 0.017849013
000170 10 3f 8d 3d ca d9 c3 3c 99 1f 2c 3d 6f 9b 49 3d
       0.06896794 0.02390756 0.04202232 0.0492205
000180 8f f4 80 bb ed 42 8c bc 60 01 01 bd e1 9d 80 3c
       -0.0039354037 -0.017121756 -0.031495452 0.015700283
000190 4a 60 53 bd c4 dc 01 bc d5 19 ed 3d 04 58 2e bd
       -0.0516055 -0.00792617 0.11577193 -0.042564407
0001a0 16 28 9a bd 27 d9 ad bd 6d bb 4c 3d fb ac 9f bd
       -0.07527177 -0.08488684 0.04998343 -0.07796665
0001b0 e4 a2 a9 3d 44 b4 a3 3d 04 f6 aa bd dd c3 f9 3d
       0.08283022 0.07993367 -0.08347705 0.12195561
0001c0 ed 4d 63 3d b3 37 54 3d 9b 04 91 bc 43 a5 8c 3b
       0.055494238 0.05181093 -0.017702391 0.0042921617
0001d0 ad d7 3c 3c 7e b8 23 3d 67 ba f2 3c 12 94 ca bc
       0.0115260305 0.039970867 0.0296299 -0.024728809
0001e0 2c 75 dc 3c 2d b3 95 3d 1e 79 44 bd 04 2f 53 3d
       0.02691134 0.07309566 -0.04796707 0.05155851
0001f0 42 ab b7 bc 4b af b5 bd 3f 4f f4 3c 38 46 92 3d
       -0.02242053 -0.08871325 0.029822944 0.071422994
000200 be 66 49 bd d5 59 5c 3d 4a 58 5d 3d 00 bd 07 3e
       -0.04917025 0.053796608 0.054039277 0.13255692
000210 c0 cc 6c 3d d2 fd cc 3c e7 77 9c 3c 0d 26 ac 3d
       0.057812452 0.025023375 0.019100143 0.08405695
000220 64 b0 63 bb 3a e2 18 3e 42 a4 52 3d 24 89 bc 3d
       -0.0034742588 0.14930049 0.05142618 0.09205845
000230 3c 47 69 3d 78 32 2f bd 8b a1 d7 3b 2f 4f 81 bc
       0.0569527 -0.04277274 0.0065805367 -0.015784828
000240 2c 3a 5e 3d f8 b0 87 3d 57 9c fc 3d 0a 8a c8 ba
       0.054254696 0.06625551 0.12334507 -0.0015299928
000250 d9 66 d5 3d 13 76 ca 3c 6f b9 26 3d 3f ff df 3d
       0.10420007 0.024714505 0.040704187 0.10937356
000260 3c 7a 2e bd 1a f2 5e bd 58 5b 69 3d 78 07 9e 3d
       -0.04259704 -0.054430105 0.056971878 0.07716268
000270 b8 30 46 bd 0b 75 56 bd f9 a1 99 3d 2c 27 cf bc
       -0.048386306 -0.052357715 0.07501597 -0.025287233
000280 53 22 80 3d 1e 51 38 3d a0 1a 9a bb 8e 41 c4 3d
       0.06256547 0.044999234 -0.004702881 0.09582816
000290 2c 94 14 3c d7 f5 02 be 49 01 9a 3b 9d ce e1 bd
       0.00906853 -0.12789093 0.0046998602 -0.110257365
0002a0 10 d7 c7 3b ad 33 07 bd b2 a5 c9 3c ab 0a 75 3c
       0.0060986355 -0.033008266 0.024615142 0.014956157
0002b0 de c7 a0 bb 38 27 e6 bc 5a 69 dd 3c 23 ed 64 3d
       -0.0049066385 -0.028094873 0.027027775 0.055890214
0002c0 b5 e4 24 bd 50 31 cc 3b be 8b 13 3d 1b 60 bb 3d
       -0.040257175 0.0062314644 0.03602194 0.0914919
0002d0 6f 9a d4 bc 4b 5d 1d 3e 44 bb 08 bd 96 c7 8f 3c
       -0.025952546 0.1536762 -0.033381715 0.017551225
0002e0 0c a8 25 bc d6 5a 10 3d aa 53 fd bb 0b c3 7a 3c
       -0.010110866 0.035242878 -0.007730921 0.015305291
0002f0 0b 07 99 bc 40 f4 02 be dd 3a c7 3d 1f 18 b1 3c
       -0.018680116 -0.12788486 0.09728024 0.021617947
000300 af aa 30 3d 1a ab 0c 3d f6 85 ae bd 67 cf 7b 3d
       0.043131527 0.034342863 -0.08521645 0.06147709
000310 64 20 72 ba fe 1a 38 3d 65 9b a2 bc 2a 48 e0 bc
       -0.0009236394 0.044947617 -0.019849489 -0.02737816
000320 fc 48 23 3c 63 78 80 bd 8a fc 49 3d 16 2a ac bd
       0.009966131 -0.06272962 0.049313106 -0.08406465
000330 a7 ed f7 3b 5a e6 78 bc 42 c9 1c bd b3 a8 11 bd
       0.007566172 -0.015191639 -0.038277872 -0.035561275
000340 34 14 18 3d 27 39 60 bd 47 f4 0b bc cb 8c c7 3d
       0.037128642 -0.054742005 -0.008542127 0.09743651
000350 ce 45 62 3d 25 8a 03 3c 07 41 4f bd c3 68 9c bd
       0.055242352 0.008028542 -0.050599124 -0.07637169
000360 9b 39 ba 3c 33 5b 7b 3c 8d fe 61 bd f2 ce 49 bd
       0.022732547 0.015341568 -0.0551744 -0.049269624
000370 22 df 7a 3b d9 15 ad 3c ba 13 8a bd b6 20 de bc
       0.003827997 0.021128582 -0.06742044 -0.027115207
000380 d5 ee 5f 3d a9 ba 98 3d 70 64 87 3d de 7f 4c bd
       0.054671127 0.074574776 0.06610954 -0.04992663
000390 ca 53 85 bb 8b 5a 2a bc d1 32 b7 bd 7b 01 8a 3d
       -0.0040688263 -0.010397564 -0.08945239 0.067385636
0003a0 11 6a 67 3d 48 35 47 3b 7e 71 d0 bb c5 22 0f bd
       0.056497637 0.0030396748 -0.0063611856 -0.03494527
0003b0 96 af 8b 3d c7 1f e5 bc 62 80 a5 3d fc 83 99 bd
       0.068206 -0.027969254 0.08081128 -0.07495877
0003c0 43 2c 51 3d 9b 48 19 bd 39 93 0f bc 2a ac ab bd
       0.051067602 -0.037422758 -0.008763128 -0.08382447
0003d0 bb 62 97 bd af 79 6d 3d c3 03 1c bc ea 17 05 bd
       -0.07391878 0.057977375 -0.009522381 -0.03249351
0003e0 86 90 11 3d 27 cc b0 3c 9a 7e 5c bd 13 b4 b3 bd
       0.03553822 0.021581722 -0.053831674 -0.08774581
0003f0 54 93 55 3d 6b d3 9a 3c c4 67 87 bd 89 e4 18 3d
       0.052142456 0.01889964 -0.066115886 0.037327323

arr_4 f4 [64]
000000 36 db 51 ba fc 78 07 bc f5 bf 63 bb 90 14 5b bc
       -0.0008005382 -0.008268591 -0.0034751866 -0.013371602
000010 3a 9f 4b bc 64 ba 5c 3c 88 3f 0d 3b 24 8f a6 3b
       -0.012428099 0.013472173 0.002155276 0.0050829817
000020 b3 f3 57 bc dd d7 1c bc cc a7 18 bc e3 24 7c bc
       -0.013180661 -0.00957295 -0.00931735 -0.015389654
000030 ef a7 49 bc 42 91 42 bc 1f 4c 9f ba 85 89 78 bc
       -0.012308105 -0.0118754525 -0.0012153423 -0.015169506
000040 18 0e 95 3a 55 b9 58 bc d4 d4 dd ba 94 21 c9 3c
       0.0011371998 -0.01322778 -0.001692439 0.024552144
000050 1f 6e 41 bb 1b 5f 01 bc 25 a5 9e bc 13 26 fa 3b
       -0.00295151 -0.00789621 -0.019365856 0.0076339333
000060 e7 81 53 3b a6 6d 93 bc 30 56 b0 bb e7 dd 0d 3b
       0.0032273473 -0.01799662 -0.005381368 0.0021647157
000070 d9 6f 1c bc 0c 6f a1 3c 0e 8c 2b bc dc dc 91 3c
       -0.009548151 0.019706272 -0.010470403 0.01780551
000080 84 3a 5d 3b d8 28 e4 3b 53 21 87 bb d6 d8 b7 3b
       0.0033756802 0.0069628768 -0.0041238456 0.0056105657
000090 d8 3d e1 bb c4 44 f0 3b ec ff 11 bc 16 22 08 bc
       -0.0068738274 0.0073324163 -0.008911114 -0.008308908
0000a0 7c 70 ac bb 08 8f 1d 3b 16 19 69 bb 3c a4 a3 3c
       -0.0052624326 0.0024041552 -0.003556793 0.019975774
0000b0 d7 23 35 bc 7e fd c2 bb 4b 51 93 3b f6 37 63 bc
       -0.011055908 -0.005950629 0.004495775 -0.013868323
0000c0 96 ec 7c 3b c0 c3 65 bc 72 5d 04 3c 46 b2 07 bc
       0.0038593165 -0.014023721 0.00807892 -0.00828225
0000d0 dd c6 81 bc 93 f6 c4 3b c5 dc 82 3a 8f a0 29 bc
       -0.015841896 0.0060108392 0.0009984007 -0.010353222
0000e0 c0 7a e6 bb 50 04 37 bc a8 c8 1e ba 82 9e 99 bc
       -0.007033676 -0.011170462 -0.0006057122 -0.01875234
0000f0 9e f6 5b ba 96 43 51 bc fe 0b 39 bc 7a 25 46 bc
       -0.0008390936 -0.012772461 -0.011294363 -0.012093896

arr_5 f4 [3, 3, 64, 128]
000000 4c 9e 3c 3d c3 8f 93 3c 5f 37 9f 3b 3c 1f 4b bc
       0.0460494 0.018012887 0.0048588957 -0.012397584
000010 44 53 db bc 1d 4d 4d bd 66 47 12 bd 60 d0 84 3c
       -0.026773103 -0.05012237 -0.035712622 0.016212642
000020 b5 2d c4 bb fc 31 24 bd e8 e5 4c 3b a4 51 78 bc
       -0.005986894 -0.04008673 0.0031264964 -0.015156183
000030 64 3c 1e 3d 8d 5e 45 3d 85 c0 31 bd 76 01 ea bc
       0.03863181 0.048185874 -0.04339649 -0.02856515
000040 e8 23 f7 bc 82 ac cc bd 42 68 47 bb 38 3e 32 bd
       -0.030168489 -0.09993841 -0.0030427133 -0.043516368
000050 68 d5 53 3d 7a 84 84 3c fa b5 0f 3d ab 3f e5 bc
       0.051717192 0.016176451 0.035085656 -0.02798446
000060 ca 35 1a bd 23 54 14 bd c5 85 f4 bc 5b bf f4 3c
       -0.037648953 -0.03621305 -0.029848943 0.029876402
000070 e8 d2 26 bd e6 6b 9e 3c 04 df 7f 3c 3b 21 2b 3d
       -0.04072848 0.01933856 0.015617136 0.041779738
000080 14 12 55 3d 08 73 bf 3c bc 3d 7b bb 6f 64 48 ba
       0.052019194 0.02337028 -0.0038336357 -0.00076443603
000090 b9 7e 62 3c 31 52 66 bc da 47 7a bd b5 d6 d6 3c
       0.013824158 -0.014057682 -0.06110368 0.026225427
0000a0 3c 4c 2d 3d ff 35 f4 bc 8c 69 58 ba 28 81 c7 3c
       0.04230903 -0.029810904 -0.0008255474 0.024353579
0000b0 d0 5e 86 3d 5e 9f 6e 3c fa 3f 76 3d 4a 0f f5 bc
       0.06561053 0.014564363 0.060119607 -0.029914517
0000c0 63 65 de bc 6e e8 9c bd d8 fa aa bb 18 07 a6 bb
       -0.027147954 -0.0766152 -0.005217891 -0.0050667636
0000d0 57 89 b9 3a 21 15 ad 3b f4 7b cb bd 06 a0 9d bd
       0.001415531 0.00528206 -0.099357516 -0.07696538
0000e0 59 d7 0d 3d f2 27 33 3d 56 d0 1d 3d 75 50 7e bc
       0.0346292 0.043739267 0.038528763 -0.015522112
0000f0 01 7e dc 3a 38 b2 79 3d fb c9 13 bb 91 4b c3 bc
       0.001682222 0.06096098 -0.002255081 -0.023839744
000100 eb af 2d bd b3 e1 46 bd 10 55 87 bb 5a 8a 3a 3d
       -0.042404097 -0.048555087 -0.0041300133 0.0455421
000110 44 70 b2 bc 47 38 ac bc ba ad 6d 3d cd 72 3f bd
       -0.021782048 -0.021022929 0.058027007 -0.046740342
000120 56 b3 17 3d 84 6e 92 bc 6e c2 36 bd 7a 2b 1f bc
       0.037036262 -0.017874964 -0.044619016 -0.009714955
000130 38 17 b8 bc 34 e9 0d 3a de 3c 31 3d 33 e8 85 bc
       -0.022472009 0.0005413473 0.043270938 -0.016346073
000140 59 14 ee 3c 20 53 64 bd a0 95 03 3d cd c2 9c 3c
       0.029062437 -0.055743337 0.032125115 0.019135857
000150 f2 4c 48 bd a0 c7 1d 3c 67 e7 6c 3d 50 b5 c5 bb
       -0.048901506 0.009630114 0.05783787 -0.006033577
000160 9f 5b 81 bd 06 7b e2 3c fd 08 1e 3d 74 d3 c8 3b
       -0.063163035 0.027646553 0.03858279 0.006128723
000170 e7 14 4d bd b2 f8 03 3d 4e 0f 96 3c 27 e5 5d 3c
       -0.050068762 0.032219596 0.018317845 0.013543404
000180 4f b6 93 bc 5f fe 98 bc 13 79 ee 3c 83 11 42 3d
       -0.018031267 -0.018675981 0.029110467 0.04737998
000190 f3 55 0f bd 8e 9f 31 bc f8 5a 1e 39 40 c5 5e bd
       -0.034994077 -0.010841263 0.00015101943 -0.05438733
0001a0 c3 92 ce 3c 91 05 49 3d 9b fe 00 3d e9 94 69 bd
       0.025216466 0.049077574 0.03149281 -0.057026777
0001b0 8f 84 0a 3c 78 38 35 3c 4e 89 68 bd d2 dd 33 bd
       0.008454456 0.0110608265 -0.05677157 -0.043912716
0001c0 19 a2 4b 3c 3a 52 1b bd 0e c4 ad bc 4f 99 66 bd
       0.012428784 -0.037920214 -0.02121165 -0.05629855
0001d0 f3 f4 78 3a f2 cc 82 bc ab 73 7e bd f1 fe 0d bd
       0.00094969495 -0.015966866 -0.06212203 -0.03466696
0001e0 67 e2 14 3d 91 f7 ba bb 48 e9 d4 b9 52 61 c0 3c
       0.036348727 -0.0057057817 -0.000406096 0.023483906
0001f0 fb 33 2d bd 18 a0 a6 bd 70 b4 0e 3d ce c9 63 3c
       -0.0422859 -0.08136004 0.034840047 0.013903094
000200 3e 1f 16 3d bc 92 23 bd 92 10 5a bd f9 ae 37 3d
       0.03665089 -0.03993486 -0.05323846 0.0448446
000210 01 c5 39 bd 8d d3 12 3d ee 80 f7 3d 4b c0 04 3d
       -0.045353893 0.03584628 0.12085138 0.032409947
000220 bb 7b 88 bd 13 b4 87 bd 8d 46 bd bd 7e bc 27 bc
       -0.06664225 -0.06626143 -0.09241972 -0.010237811
000230 dc db 4f 3c b2 7f a5 3c a3 1d 5f bc 2f 3d 5d bd
       0.012686696 0.020202491 -0.013617906 -0.054013427
000240 d1 33 63 3d 06 56 10 bd fd 9c 40 bd 2c c4 29 3d
       0.055469338 -0.03523829 -0.047024716 0.04144685
000250 55 6e 61 3d d3 a7 94 3d e7 59 bf bb 89 d7 7a bc
       0.05503686 0.072585724 -0.0058395746 -0.015310177
000260 b6 cd 1e 3d 4a c8 19 3c 68 e4 40 bd f8 7e 27 bd
       0.0387704 0.009386132 -0.047092825 -0.04089257
000270 7d 2c 21 bd 52 6a 54 bd 2e 0c 3f 3d cd eb 0a 3d
       -0.039349068 -0.051859207 0.046642475 0.033916283
000280 88 f4 82 3c 01 4d 83 3c 93 e6 75 3d 3e ca 9a bc
       0.015985742 0.01602793 0.060034346 -0.018895265
000290 0d c9 51 3d 29 1d 6e bc 36 9b 12 3d 2f e3 0f 3c
       0.051217128 -0.0145333195 0.035792552 0.008782192
0002a0 d0 d5 84 3c 3d 36 3b bd 62 e1 f1 3c 66 56 b3 3c
       0.016215235 -0.045706023 0.029526416 0.021891784
0002b0 6d 6c 3a 3d 04 9b cc bd 74 9c 8c bc f6 8e 0e bd
       0.04551356 -0.099905044 -0.017164446 -0.034804307
0002c0 9b a9 33 3b ef bf 81 bd 90 54 52 3d 65 cd 29 bd
       0.0027414325 -0.063354366 0.051350176 -0.041455645
0002d0 7e 45 a2 bc 49 d7 0d bd 87 3b c2 bd 14 7e 5b bd
       -0.019808527 -0.03462914 -0.0948401 -0.053587034
0002e0 af e8 fc 3c 10 b5 0b bc 22 5a e9 bc db 93 64 3d
       0.030872671 -0.008527055 -0.028485361 0.05580507
0002f0 5c c8 2c bd 08 73 9b 3d de a4 55 3d ba 53 10 bd
       -0.042183265 0.075903 0.052159183 -0.035236098
000300 8e c3 4f bd 20 72 cd bd 07 6b 1c 3c 68 07 43 3d
       -0.050723605 -0.10031533 0.009547002 0.047614485
000310 7c 00 02 bd b2 84 94 3c 40 83 9d 3d 4b 4e a2 3c
       -0.031738743 0.01812968 0.076910496 0.019812724
000320 14 c0 df bc 83 7d 1a 3b f5 71 0d 3d fa 3b 69 3d
       -0.02731327 0.0023573346 0.034532506 0.056941964
000330 3f 27 1b 3d ea 63 c9 bd 87 69 0f 3a 9f 67 47 3d
       0.037879225 -0.0983351 0.0005470742 0.048682805
000340 2a 02 d6 bc 4c 08 8f 3c 63 13 27 bd 96 86 41 3d
       -0.026124079 0.017460011 -0.040789973 0.04724749
000350 a9 d3 32 bd 59 22 4b bd ae d1 c8 3d 67 87 04 3b
       -0.043658886 -0.049593303 0.09805618 0.0020222308
000360 47 e4 93 bc 6e 86 8e 3d f1 7a ae 3c e8 6b 46 3d
       -0.018053187 0.06959234 0.021298857 0.04844275
000370 1b 71 66 3d 37 6a a9 bc 44 c7 5a 3d 31 09 bf 3c
       0.05626021 -0.02068053 0.05341269 0.023319812
000380 a8 16 ab bd 5d ad 91 3d bd 4c 25 bd 57 fb 0e 3d
       -0.08353931 0.071131445 -0.040356386 0.034907665
000390 53 f1 99 3d eb fb 1b bc bb fc 7d bc 34 e4 43 bd
       0.07516732 -0.009520511 -0.01550215 -0.047825053
0003a0 71 9a eb 3c e6 0d 46 3d 59 a9 2c bd 20 72 9f 3c
       0.028760167 0.0483531 -0.04215369 0.019463599
0003b0 95 c7 81 bc a3 55 33 bd 38 27 1e 3b bc 5d bb bc
       -0.015842238 -0.04378284 0.0024132263 -0.022871844
0003c0 73 bc 43 bd 4c 3d 8e 3d 83 2c ed bc aa d8 2d bd
       -0.04778714 0.06945285 -0.028951889 -0.042442955
0003d0 3c 2c 26 3d 9f 89 2b 3d 4b dd 6a 3c a9 cc 1f bd
       0.04056953 0.041879293 0.014334987 -0.03901354
0003e0 55 be 51 3c 4e 5c 1a bd c5 4b cc 3c a4 c4 d5 3c
       0.012801726 -0.037685685 0.024938473 0.026094742
0003f0 3e 56 c8 3c ec 83 8f bd 74 89 4f 3d f6 17 90 3d
       0.024455186 -0.07007584 0.050668195 0.0703582

arr_6 f4 [128]
000000 b2 58 32 bc 8e 18 d1 bb 93 39 1c bb 20 ba 0b b8
       -0.010885404 -0.006381101 -0.0023838028 -3.3313525e-05
000010 2c d9 b6 b9 a8 26 35 bc fd 70 c6 3a 5d 94 b2 39
       -0.0003487555 -0.01105658 0.0015139874 0.00034061345
000020 2d 58 88 bc 37 7c c6 3a 6e 95 e8 bb 8d 06 07 bb
       -0.016643608 0.001514322 -0.0070978915 -0.002060327
000030 a5 b1 72 3a 7b c2 f6 ba 93 3c 7c bb f9 c9 43 bc
       0.00092580385 -0.001882627 -0.0038488253 -0.0119500095
000040 33 ef c4 bc e0 b9 47 bb 79 f2 94 bc c6 6d 50 bc
       -0.02403984 -0.003047578 -0.018182026 -0.0127214845
000050 68 a0 98 bb b1 2c 25 bc 8b 77 3d bb 73 fa 9c bc
       -0.004657794 -0.010081456 -0.0028910364 -0.019162392
000060 21 4b 67 bc fe 52 94 bb 4a 40 14 bc 95 5a 7c bb
       -0.014117033 -0.004526495 -0.009048531 -0.003850614
000070 11 ab 90 bb 0f 09 41 bc 17 ef ad bb 78 7f 0c bc
       -0.004414924 -0.011781945 -0.0053080427 -0.008575313
000080 df cd 09 bc 50 6b 7c bc 52 c9 78 bc 72 c6 d7 bb
       -0.0084109 -0.015406445 -0.015184717 -0.006584936
000090 67 06 0c bc 61 01 2d bc c3 b0 88 bb 9a a3 c2 bb
       -0.008546448 -0.010559411 -0.0041714623 -0.005939913
0000a0 22 41 b9 bb b0 f6 f7 bb 42 4f a4 bc 16 24 17 bc
       -0.0056535164 -0.0075672492 -0.020057324 -0.009224912
0000b0 ff 32 76 bc 0d 22 be bb 23 24 4e bb bf a5 22 bc
       -0.015026807 -0.005802399 -0.0031454645 -0.009927212
0000c0 2c 3b 9e bc a6 50 57 bb 8d d7 b7 ba 84 33 21 bc
       -0.019315325 -0.0032854467 -0.0014026031 -0.009838942
0000d0 be cd 1b bc 82 dd 36 bc 19 f6 0b bc ae 98 aa 3a
       -0.009509502 -0.01116121 -0.008542561 0.0013015473
0000e0 87 6a 1b bc 6a dc f0 ba c3 7f 66 bc 8b 39 a9 bb
       -0.009485847 -0.0018376235 -0.014068547 -0.0051643304
0000f0 f5 0c af bb cb a2 ba bb 52 31 ef bb 83 1a a0 bb
       -0.005342121 -0.005695676 -0.0072995806 -0.004885973
000100 84 b5 53 ba 38 60 47 bc 15 ce 18 bc 11 38 4f bb
       -0.0008076059 -0.012168936 -0.009326478 -0.0031619112
000110 36 d4 80 bc 45 f0 56 bb 61 2e 2e bb b1 5d 2b bc
       -0.01572619 -0.003279702 -0.0026577937 -0.0104593495
000120 00 3a 66 3b da 32 bc bc a5 67 96 3b c6 e5 84 bc
       0.0035129786 -0.022973467 0.004589992 -0.016222846
000130 90 cc 00 bb e0 4a 51 bb 90 b7 2b ba 26 52 d3 bb
       -0.0019653179 -0.0031935498 -0.0006550485 -0.006449002
000140 84 c2 23 bc 78 12 14 bc dc d3 92 bc e7 87 a5 bc
       -0.009995107 -0.009037606 -0.017923288 -0.020206405
000150 e5 c3 00 bc d8 48 47 bc 4a 1f 1b bc f6 c6 94 bb
       -0.007859205 -0.012163363 -0.009467909 -0.0045403196
000160 a8 09 41 bc ff 47 d3 bb 20 ea 1e 38 10 d6 49 bb
       -0.011782087 -0.0064477916 3.788818e-05 -0.0030797757
000170 2e 6a e4 ba 1c b2 51 bc 2b c9 f1 bb 14 ec 1d bc
       -0.0017426664 -0.012798812 -0.0073787174 -0.009638805
000180 81 b0 89 bc 4c 6d f2 bb c4 1e 90 ba 2b 90 4d bb
       -0.016807796 -0.007398283 -0.0010995497 -0.0031366448
000190 eb e1 0b bb ac 38 8d bb 99 21 46 bc cb 56 7b bc
       -0.0021344374 -0.0043097343 -0.012092971 -0.015340517
0001a0 8a 79 db bc 23 ad e7 bb b2 85 a3 bb 78 e7 42 bc
       -0.026791353 -0.0070702 -0.004990303 -0.011896007
0001b0 68 cc 8c bc ad 4a 41 bc 46 69 71 bc c1 a3 5a bc
       -0.017187312 -0.011797589 -0.014734572 -0.013344706
0001c0 55 b2 95 bc 1b 7a f9 bb c2 ab 7c bc 52 a4 8f bc
       -0.018273512 -0.007613433 -0.01542181 -0.017534409
0001d0 c4 bd 38 bc 85 5a 4a bc 76 4b 1a bc 92 ca 1c bc
       -0.011275712 -0.012350683 -0.009417405 -0.009569781
0001e0 17 21 49 bc a9 af 02 bc 02 1a ba 39 ba 2e 1d bc
       -0.012275956 -0.007976451 0.00035496062 -0.00959366
0001f0 bd 97 77 bc 12 3d dc bb 30 7f 93 bc 52 57 91 bc
       -0.015111861 -0.0067211473 -0.018004984 -0.017741833

arr_7 f4 [3200, 3]
000000 d7 27 30 bd c3 2a 26 3d b9 ce 51 bd cc 5e 9d 3c
       -0.043006744 0.040568125 -0.051222537 0.019210242
000010 11 7f 8c 3d 62 52 39 bc 54 37 97 bc 7d dd 16 3b
       0.068601735 -0.0113111455 -0.018459 0.00230202
000020 3a e0 78 bc f4 86 ec 3c 49 c7 79 bb 30 c8 3d 3b
       -0.0151901785 0.028872944 -0.0038113168 0.0028958432
000030 d7 86 ba bc 93 6a a7 3c cf 98 1f bc b1 ce f3 bc
       -0.022769375 0.02043656 -0.009741022 -0.029761644
000040 5d cb 1e 3d 4c a3 74 bd d3 68 ec bb 5f 12 14 bd
       0.03876816 -0.059726045 -0.0072146445 -0.036150333
000050 82 e5 8b 3c cb 5e 87 bc f5 48 f9 3c 28 88 f1 bb
       0.017077211 -0.016524693 0.030430296 -0.0073709674
000060 7f f0 ad bc ae 92 53 bc ce 4d 0c 3c 28 81 01 bc
       -0.021232842 -0.012913389 0.008563472 -0.007904328
000070 87 c2 bb 3c af 6b 0c bd 72 68 ca bc 3b e8 85 bd
       0.022919906 -0.034282383 -0.024708007 -0.06538435
000080 77 39 cf 3c ad 9c 2f 3d 07 0c ea 3b af c7 e2 bc
       0.025295956 0.042874027 0.007142547 -0.027683107
000090 45 7e 9c bd bc 72 1b 3d 0b b8 b3 bd 05 af de bb
       -0.076412715 0.037951216 -0.08775338 -0.0067957663
0000a0 3b 80 26 3c f2 16 1a bd a6 6a 19 3d 78 5c 7e 3b
       0.010162408 -0.03761954 0.037455224 0.003881244
0000b0 f2 36 71 bd bc 54 20 3d 90 4d 9b 3b ad df 3e bd
       -0.05889029 0.03914331 0.004739471 -0.046600033
0000c0 a3 15 04 bd 41 12 2f bc cc bb ab 3b a3 c4 9b bc
       -0.032247197 -0.010685504 0.005240893 -0.019014662
0000d0 e3 a3 05 bd 5b a7 03 3d 44 d1 be 3b 93 00 96 3c
       -0.032626998 0.032142024 0.0058232863 0.01831082
0000e0 f9 7b 94 bd 7e e9 9f ba 7a f2 79 bc b8 1f 0f 3b
       -0.072502084 -0.0012200323 -0.015255565 0.0021838974
0000f0 94 0c 96 bc 84 16 69 3b 5d 6e ca 3c fa 2c 7d bc
       -0.018316545 0.00355664 0.024710828 -0.015452618
000100 6a 44 8c 3d f6 7e 9a bd 67 f0 36 bc ea ac 0a 3c
       0.068489864 -0.07543747 -0.011165715 0.0084640775
000110 09 06 98 bb fb 45 53 3b 2e ed 6a 3d a6 8f 1f bd
       -0.0046393913 0.0032237757 0.0573551 -0.038955353
000120 df a3 88 bc 16 f9 17 3d 65 42 9e 3c 33 d3 31 3d
       -0.016679702 0.03710278 0.019318769 0.043414306
000130 01 23 85 3c be 0f 35 bd 27 34 31 3d 10 67 23 3d
       0.016252043 -0.044204466 0.043262627 0.03989321
000140 d7 57 92 3a 71 ce 3c bd c2 c3 9c bb 60 90 b8 bc
       0.0011165094 -0.046095315 -0.0047840783 -0.02252978
000150 e1 4e 14 bc b2 10 65 bc ce 9b 57 3d 4a 2b 12 bd
       -0.009052009 -0.013981031 0.05263882 -0.035685815
000160 a6 91 8d bd 7c 86 92 3d 9e 7d 73 ba 61 c8 9a bb
       -0.06912546 0.07154557 -0.0009288433 -0.004723594
000170 bb 7d 20 3d 76 38 b2 bb a1 88 96 3d 96 68 d0 bd
       0.039182406 -0.0054388596 0.07350279 -0.10176198
000180 76 5e 81 bc a7 fb d3 bc 69 bf 32 bd 0f 36 ec 3c
       -0.015792113 -0.025876833 -0.043639574 0.02883437
000190 b4 e3 b2 3c 40 d6 e0 3c 9e c7 61 bd 2f a4 63 3d
       0.021837093 0.027445912 -0.05512201 0.0555765
0001a0 8a ea 3c bc ea 3c ce 3a b5 62 1a 3d 96 32 29 bd
       -0.011530528 0.0015734707 0.03769179 -0.041308008
0001b0 c9 e3 24 3d d1 e6 41 bc 44 e3 1a bd e3 8b 91 bc
       0.040256295 -0.011834816 -0.037814394 -0.017766898
0001c0 b0 01 2d bd 01 51 a2 bc 1a 1e 81 3a b4 bc 21 3d
       -0.042237937 -0.019814016 0.000985089 0.039486602
0001d0 b5 cb 3d 3d 5b 22 06 bd 3b d3 eb 3c 78 b6 11 bd
       0.04633685 -0.032747608 0.028787246 -0.035574406
0001e0 fd 48 23 3c 27 01 1b bd 04 61 d5 bb 6e 81 bc bc
       0.009966132 -0.037842896 -0.0065118093 -0.023010936
0001f0 e6 0e 76 3c 3e 1f 4a bd 5e bf 97 3c e1 9b 2a 3c
       0.0150182005 -0.0493462 0.018523868 0.010413141
000200 96 a5 d0 bc b1 8f 5f bc 21 48 2a bd a1 dd 35 3b
       -0.025469583 -0.013645099 -0.041572694 0.002775051
000210 54 42 ac 3c 9a a7 7b bd c9 e5 38 3c 8f d3 89 bc
       0.021027721 -0.061439134 0.011285254 -0.016824512
000220 78 75 72 3c 7b 89 9b bd 94 fa f6 3a 26 5d d2 bb
       0.014798515 -0.07594582 0.0018842989 -0.0064197956
000230 d1 4e 8b bc 45 60 18 bc be 46 d5 3c de 7d 32 3d
       -0.017005356 -0.009300296 0.026034709 0.043577068
000240 a1 7e 0c bd bd 0c 14 3c f5 b9 7a bd fb 91 12 3d
       -0.03430045 0.00903624 -0.0612125 0.03578375
000250 99 e9 2a bd d0 34 cc 3c f6 a4 27 bb 14 dc 8b bc
       -0.041726682 0.024927527 -0.0025580502 -0.017072715
000260 54 dd c2 3b a5 97 2f 3b ff 36 64 bd c6 17 61 3d
       0.0059467945 0.0026793268 -0.05571651 0.054954313
000270 f1 94 17 3d ab 2c 65 bc 3a a6 39 3c ee b6 e7 3b
       0.037007276 -0.0139877 0.011331135 0.0070713675
000280 66 3b 95 bc 00 3b 49 3d e7 e3 11 bd de f4 3d 3d
       -0.0182168 0.049128532 -0.035617735 0.0463761
000290 f6 b5 8b 3c 31 07 1e bc 99 a9 96 3c f7 31 88 bb
       0.01705454 -0.009645269 0.018391417 -0.004156347
0002a0 56 2a 62 3c 03 5d c0 bb 8b 3e cd 3c 34 eb 0f ba
       0.013804039 -0.005870463 0.025054237 -0.0005490065
0002b0 82 4e c3 3c 1b 28 87 bc c5 85 10 bd 8e 91 8a 3b
       0.023841146 -0.016498616 -0.035283823 0.0042287773
0002c0 2c 25 42 3a c7 81 f9 3c 05 61 88 3b 12 a2 80 bc
       0.0007406052 0.03045739 0.0041619563 -0.015702281
0002d0 4e b3 ff 3c 68 07 b6 3b af 07 1d 3d 78 99 08 bc
       0.031213429 0.005555082 0.038337406 -0.008337371
0002e0 07 1b 08 3d 6c 72 25 bc 2e ee 64 3c 93 34 17 3d
       0.0332289 -0.010098081 0.013972802 0.036915373
0002f0 66 68 f4 3c 8c 39 78 3c a5 c1 2c 3d 39 87 0c bd
       0.029834937 0.015150439 0.04217686 -0.034308646
000300 b7 8a 2c bc 77 40 6b 3c 38 48 16 3d cc 12 db bc
       -0.010531119 0.014358631 0.036689967 -0.026742361
000310 4c e1 93 3c fc 3e 2b bd e4 50 73 3c d2 ff 5a 3b
       0.018051766 -0.041808113 0.014850829 0.003341664
000320 c6 5f 1f 3d 47 99 2f 3c 03 4b 22 3c 6c 56 ad bb
       0.038909696 0.0107176965 0.0099055795 -0.0052898433
000330 7f 83 11 bd dc 3c 8e 3c 0f 46 27 3d 72 f6 5c bc
       -0.035525795 0.017363004 0.040838297 -0.0134864915
000340 48 83 e5 bb e7 5f 1f bd 31 8c 6b bc 2e 43 37 3c
       -0.0070041753 -0.03890982 -0.014376686 0.0111854505
000350 a2 ad d5 3c cf da 9b bc cb 5e c5 3b 6c be 6a bb
       0.026083771 -0.019025235 0.006023263 -0.0035819067
000360 5a c8 60 bd 03 39 e6 3c 1a 99 68 bd b1 1f cd bd
       -0.05487857 0.028103357 -0.056786634 -0.1001581
000370 4b e2 06 3e 5d 9f fa bd e1 a0 5f bd cf 42 54 bd
       0.13172261 -0.122374274 -0.054596785 -0.051821526
000380 77 5b d6 3c 79 b4 2a bd 9f a0 7f bd b5 0b 82 bc
       0.02616666 -0.04167602 -0.06240904 -0.015874723
000390 ee 3a 3a 3c a3 37 09 3d a4 70 92 bc e2 89 f5 3c
       0.011366589 0.033500325 -0.017875977 0.029972974
0003a0 92 70 04 3c 8b 26 47 3c 02 e7 c1 bb 6c ce fc 3c
       0.0080834795 0.012155185 -0.005917431 0.030860148
0003b0 ec bf 3a 3c 1c 7a d0 3c e5 85 7b 3c f5 08 3a 3c
       0.011398297 0.025448851 0.015351747 0.011354675
0003c0 49 ba ab bc b9 e0 19 bc 32 aa 1a 3c 3c e3 47 bd
       -0.020962851 -0.009391957 0.009439992 -0.048800692
0003d0 38 c0 c6 3a 94 4b a4 3a c4 31 20 bd 09 5d df bc
       0.0015163487 0.0012534731 -0.03910996 -0.027266042
0003e0 e2 47 c3 bc d8 14 48 bc da 37 82 3c 09 8a 09 3d
       -0.023837987 -0.012212001 0.015895773 0.033578906
0003f0 d2 ef 80 3a 88 23 e9 bb bd fc 92 3c 60 2c 9f bc
       0.0009837097 -0.0071148314 0.01794278 -0.01943034

arr_8 f4 [3]
000000 3d 97 d6 3c 90 51 55 bc aa b0 ec ba
       0.026195163 -0.013019934 -0.0018058021
